Cartpole/Cartpole_critic.pth (torch, 3728 bytes, 3 tensors)

fc1.weight f4 [64, 4]
0.52581304 0.9816181 -0.07831766 0.23734295 -0.964499 -0.05570331 4.3256984 1.0990773
-0.34250972 0.2897542 0.33006766 -0.020938914 -1.7461149 -2.1795657 -4.837892 -1.7680554
-0.31828666 0.3033654 -0.07671537 0.38139713 -0.10045575 -0.04081892 0.28188646 -0.056325883
2.099442 -0.8455803 -4.8331203 -0.47890946 -0.57947063 -0.6274552 0.8771886 -0.200722
-0.8778571 0.25857636 5.382818 0.3833627 -1.0628163 -1.0108705 -0.24668899 -0.5010669
0.7816596 -0.8299601 -0.26307428 -0.27628076 -0.027509445 -0.020962795 0.07713887 -0.08017454
-0.03851468 -0.06916977 0.12885985 -0.33785632 -1.9576533 -0.18092388 0.4378006 0.25926146
1.8890116 -0.44812977 -1.4548231 -0.7085615 0.095850945 -0.07673369 0.2954555 -0.06579583
2.5280058 0.7942931 -3.9913476 0.2579476 -0.3345667 0.09871605 0.28858745 -0.052114844
-1.6007035 0.7687981 0.77334344 0.99958867 -1.4038856 -0.21623965 2.9340332 0.039211016
-2.189523 -0.5740463 2.4626505 0.08252805 -2.188792 -1.4671739 -2.7921374 -0.89482087
-0.2183466 -0.14973296 0.70670956 -0.30181026 1.9989809 0.009908401 -0.8278286 -0.19735694
-1.2300751 0.29603538 1.2667572 -0.5390519 1.3235495 0.37787956 -0.50087506 -0.10952235
1.761122 -0.46481127 -1.6241833 -0.20555924 0.08458529 -0.03625239 -0.10471992 0.026102323
-0.18722421 -0.049154606 0.11603465 0.1835411 0.1608864 -0.017629419 -0.017148463 0.3074389
-0.46686932 -0.060155284 0.6117332 -0.1521567 -1.7262379 0.65790117 4.3531923 0.7505273
-0.9316133 -0.579138 0.7289433 -0.06719634 1.060678 0.7700784 -0.2634224 0.24411362
0.10655854 -0.16237126 -0.2719325 -0.18965572 2.2834685 0.39285964 -4.398361 -0.09583326
1.6453595 0.50565594 -0.87823313 0.13371047 1.8155645 0.17216876 -5.0644603 -0.74715525
-0.3273654 0.49486893 6.415345 1.421798 0.81425256 0.88690734 0.06971318 0.37392452
2.9121482 0.8455394 -2.969248 0.15752998 -0.5176716 0.23112284 0.73996425 0.1969079
0.6300461 -0.30882972 0.24299833 -0.05915374 2.8993692 0.98990405 -3.525708 0.0979191
0.37729996 1.4185605 6.1609235 1.2037628 -0.11196634 -0.05238572 -0.110224135 0.021152388
0.4401407 0.20148459 -0.3557976 0.17507984 1.6697031 -0.7253427 -5.7618594 -0.8532206
-0.43751416 -0.5931662 0.24306947 0.018746173 -2.3233826 -0.65756315 1.3620892 0.0485361
-0.4637122 0.22570091 0.3509503 0.16760038 -0.29694733 0.045765594 0.3988321 -0.023137528
-0.2155402 -0.13499281 -0.2302017 -0.26307204 -0.24839404 -0.23320621 0.6640323 -0.114081144
0.8812504 0.87216926 -0.61516315 0.34914628 -0.26155418 0.07228727 0.8096925 -0.14359316
-1.6782315 -0.12763456 2.5324578 -0.048337027 0.4083853 0.186899 0.29374954 0.455297
0.4152416 -0.2747285 0.5716423 0.17183483 1.9040674 -0.052027937 -4.6608543 -0.26301578
1.2997895 0.9893705 -0.45468798 0.34980032 1.4644289 -0.3024683 -0.7196007 0.10543335
0.10801122 1.111235 6.7933064 1.0435126 0.50976276 0.5943136 0.30867815 0.10467003
00000000: af9b 063f 534b 7b3f 0265 a0bd 080a 733e
00000010: 68e9 76bf 2729 64bd 1f6c 8a40 91ae 8c3f
00000020: 6f5d afbe aa5a 943e a1fe a83e 1688 abbc
00000030: b180 dfbf 017e 0bc0 03d0 9ac0 a44f e2bf
00000040: 78f6 a2be b652 9b3e f31c 9dbd 7c46 c33e
00000050: bfbb cdbd bd31 27bd 6c53 903e f8b5 66bd
00000060: 425d 0640 f377 58bf eca8 9ac0 9f33 f5be
00000070: 3058 14bf e7a0 20bf 6f8f 603f 118a 4dbe
00000080: 3ebb 60bf 1f64 843e 0c40 ac40 1e48 c43e
00000090: 5d0a 88bf 3464 81bf 0a9c 7cbe ec45 00bf
000000a0: d81a 483f 4478 54bf acb1 86be ac74 8dbe
000000b0: 7d5b e1bc 2bba abbc fcfa 9d3d 8d32 a4bd
000000c0: 92c1 1dbd e1a8 8dbd d6f3 033e 81fb acbe
000000d0: 6294 fabf 1c44 39be 6627 e03e ebbd 843e
000000e0: 22cb f13f 4471 e5be a537 babf 4964 35bf
000000f0: 804d c43d 8e26 9dbd f145 973e f7bf 86bd
00000100: d9ca 2140 cb56 4b3f 3d72 7fc0 b511 843e
00000110: 544c abbe a42b ca3d bcc1 933e 6076 55bd
00000120: dae3 ccbf f4cf 443f d6f9 453f 0be5 7f3f
00000130: 86b2 b3bf ed6d 5dbe 33c7 3b40 bb9b 203d
00000140: 2521 0cc0 b3f4 12bf 119c 1d40 7704 a93d
00000150: 2b15 0cc0 5bcc bbbf 61b2 32c0 fb12 65bf
00000160: 4096 5fbe 9953 19be ebea 343f e086 9abe
00000170: 9bde ff3f d956 223c 93ec 53bf f017 4abe
00000180: 1a73 9dbf f391 973e 1a25 a23f 4eff 09bf
00000190: 126a a93f 6e79 c13e 5939 00bf 414d e0bd
000001a0: 726c e13f befb edbe 3de5 cfbf 1f7e 52be
000001b0: 0d3b ad3d 637d 14bd 6677 d6bd 8ad4 d53c
000001c0: b4b7 3fbe 5756 49bd 93a3 ed3d 33f2 3b3e
000001d0: 68bf 243e 926b 90bc ef7a 8cbc a268 9d3e
000001e0: 7f09 efbe 6365 76bd 8c9a 1c3f f7ce 1bbe
000001f0: 5df5 dcbf 366c 283f 5a4d 8b40 8f22 403f
00000200: 367e 6ebf 6342 14bf 079c 3a3f 3c9e 89bd
00000210: 4cc4 873f dc23 453f 4ddf 86be ecf8 793e
00000220: 5d3b da3d a744 26be bd3a 8bbe 1c35 42be
00000230: 5924 1240 e624 c93e 60bf 8cc0 3a44 c4bd
00000240: 249b d23f ab72 013f e3d3 60bf 66eb 083e
00000250: 6b64 e83f 024d 303e 0f10 a2c0 9145 3fbf
00000260: 709c a7be 765f fd3e 824a cd40 7afd b53f
00000270: db72 503f 5c0c 633f c9c5 8e3d 0973 bf3e
00000280: a360 3a40 4575 583f 2908 3ec0 8a4f 213e
00000290: 2086 04bf 77ab 6c3e 4c6e 3d3f 39a2 493e
000002a0: b44a 213f ee1e 9ebe 8ed4 783e 314b 72bd
000002b0: 448f 3940 5a6a 7d3f 33a5 61c0 cf89 c83d
000002c0: 762d c13e 6493 b53f 4926 c540 e614 9a3f
000002d0: 9c4e e5bd 6992 56bd 31bd e1bd c647 ad3c
000002e0: 1f5a e13e fa51 4e3e 1a2b b6be 2148 333e
000002f0: d5b8 d53f 0fb0 39bf 2761 b8c0 aa6c 5abf
00000300: db01 e0be bdd9 17bf 34e7 783e 9391 993c
00000310: 4db2 14c0 0f56 28bf f058 ae3f cacd 463d
00000320: af6b edbe 241e 673e c2af b33e 6f9f 2b3e
00000330: 7b09 98be b474 3b3d b933 cc3e ea8a bdbc
00000340: 92b6 5cbe 8e3b 0abe ffb9 6bbe 61b1 86be
00000350: 025b 7ebe 9ccd 6ebe 05fe 293f 60a3 e9bd
00000360: a099 613f 7c46 5f3f 557b 1dbf 4dc3 b23e
00000370: 6eea 85be 590b 943d 0248 4f3f 160a 13be
00000380: 4ad0 d6bf a2b2 02be ca13 2240 0cfd 45bd
00000390: e117 d13e 7462 3f3e 5766 963e b01c e93e
000003a0: 8c9a d43e 37a9 8cbe 2657 123f 78f5 2f3e
000003b0: 7bb8 f33f 3f1b 55bd b825 95c0 01aa 86be
000003c0: 815f a63f 6347 7d3f ddcc e8be 0719 b33e
000003d0: 6872 bb3f 20dd 9abe c037 38bf 71ed d73d
000003e0: fd34 dd3d f33c 8e3f c462 d940 d291 853f
000003f0: d07f 023f f024 183f 100b 9e3e 3e5d d63d

fc1.bias f4 [64]
0.96972364 -1.2709868 1.7361233 -0.11688641 1.6234742 -0.5676869 -0.5650824 1.2013423
-0.49882248 1.3817166 0.929915 -0.6302287 -0.51551026 0.9928077 0.057654493 1.3015876
-0.28467786 1.6929001 -0.17389812 -1.5287611 -0.6712339 -0.20944472 1.59631 -0.2768925
0.48083767 0.8490654 0.47977713 1.457562 1.6699933 1.5582358 1.5200604 -1.0901957
-1.228098 0.8025466 -0.63172495 -0.66847056 -0.40891647 -1.2375829 -1.2998703 1.0619823
0.017467542 1.7105634 1.4472294 -0.4810307 -0.569274 1.3259798 1.5488797 -1.2175376
1.492738 -0.4500029 1.7941202 1.5506717 1.7406938 1.7799026 1.3060405 1.618797
-1.3635315 1.5304782 1.7020402 -0.8409675 1.3729714 0.95613116 -0.028482214 1.0172113
00000000: cf3f 783f b2af a2bf 4a39 de3f 2462 efbd
00000010: 01ce cf3f ee53 11bf 3da9 10bf 96c5 993f
00000020: a965 ffbe 17dc b03f e90e 6e3f ab56 21bf
00000030: 7bf8 03bf a528 7e3f 1e27 6c3d 6c9a a63f
00000040: 4cc1 91be f3b0 d83f 5912 32be 72ae c3bf
00000050: fcd5 2bbf ad78 56be e353 cc3f dbc4 8dbe
00000060: 5b30 f63e 5a5c 593f 59a5 f53e 6491 ba3f
00000070: 57c2 d53f 4574 c73f 5791 c23f 888b 8bbf
00000080: 5132 9dbf b273 4d3f bab8 21bf e320 2bbf
00000090: 805d d1be 1e69 9ebf 2662 a6bf 09ef 873f
000000a0: 1718 8f3c bef3 da3f d03e b93f a849 f6be
000000b0: f1bb 11bf b5b9 a93f b141 c63f 46d8 9bbf
000000c0: 0a12 bf3f c866 e6be bba5 e53f 697c c63f
000000d0: 0ecf de3f d9d3 e33f 562c a73f bd34 cf3f
000000e0: 3388 aebf b6e6 c33f 74dc d93f a549 57bf
000000f0: 87bd af3f 03c5 743f 8853 e9bc fb33 823f

fc2.weight f4 [1, 64]
0.82988584 -1.5929604 0.9848053 -2.814535 0.98840636 0.026895165 -1.3846583 1.0672619
-2.1437244 1.0719521 0.6029304 0.10017377 -0.07130303 1.332071 0.94017345 0.766817
-1.4904368 1.000776 1.4176639 -1.360025 -0.77141285 -1.800637 0.91794455 2.4845328
0.68701744 0.80573696 0.9974338 1.1028949 1.1535916 1.0674194 1.0881585 -1.9312454
-1.2290486 0.75381 -0.12225701 -1.7759122 1.0755626 -1.3218571 -3.4444253 0.7751462
-1.2314575 0.9815495 0.9104279 -1.1968561 -3.4635596 1.0105518 0.84583014 -2.8627646
1.0108058 -0.27645755 1.1041713 1.015736 0.99787045 1.1294994 0.9526918 0.9376056
-1.8561577 1.0587096 1.1375057 -1.3266245 0.9720995 0.85240996 -3.3505504 0.813234
00000000: 6673 543f 20e6 cbbf 331c 7c3f 5721 34c0
00000010: 3308 7d3f 4053 dc3c 7c3c b1bf 0a9c 883f
00000020: c832 09c0 ba35 893f a659 1a3f e827 cd3d
00000030: 5307 92bd 4d81 aa3f 35af 703f 1e4e 443f
00000040: a2c6 bebf 6e19 803f 0376 b53f 4d15 aebf
00000050: 507b 45bf 467b e6bf 6afe 6a3f 9602 1f40
00000060: 60e0 2f3f c744 4e3f d257 7f3f a92b 8d3f
00000070: e4a8 933f 33a1 883f c748 8b3f 0d33 f7bf
00000080: 7751 9dbf b1f9 403f e261 fabd 1751 e3bf
00000090: 09ac 893f 9d32 a9bf 7771 5cc0 fb6f 463f
000000a0: 66a0 9dbf d446 7b3f ce11 693f 9532 99bf
000000b0: f6aa 5dc0 c359 813f 5388 583f 8937 37c0
000000c0: 1662 813f d88b 8dbe 7c55 8d3f a303 823f
000000d0: 7074 7f3f 7093 903f 9ce3 733f ec06 703f
000000e0: 9396 edbf cc83 873f c999 913f d5ce a9bf
000000f0: 83db 783f 8a37 5a3f 6b6f 56c0 1a30 503f
