Cartpole/Cartpole_actor.pth (torch, 3976 bytes, 4 tensors)

fc1.weight f4 [64, 4]
0.3405981 -0.3191046 -0.071421355 0.4428532 -0.3246797 -0.30729604 -0.49839666 -0.6915291
0.35875905 0.15374543 0.7885419 0.5992654 0.44410914 -0.21190688 -0.2544514 -0.48977375
-0.15633869 0.3854755 -0.018546036 -0.14750914 0.18512441 -0.21232337 -0.48103532 -0.20097764
0.18273565 0.19110122 0.055228524 -0.3700141 -0.12659638 0.24575143 0.6079122 0.3961328
-0.29169434 -0.22379439 -0.09021278 -0.57869035 -0.08321086 -0.22406246 -0.17795506 0.2204863
-0.43910193 -0.21256971 -0.10675882 0.23281114 0.19043276 0.19043815 0.42755425 0.43025935
0.17552072 -0.20527191 0.18045314 0.2890642 -0.07330444 0.2682145 -0.62500423 -0.2269167
0.22991902 -0.2245981 0.75286883 0.60459614 -0.25688902 -0.4578445 -0.09242822 -0.06900438
0.42187226 0.19740938 0.63284516 -0.017194964 0.0024568664 -0.13733512 0.020277653 0.4872963
0.059390064 0.49406007 -0.1534202 -0.3632424 -0.3379164 -0.1164644 -0.30691963 -0.24332428
-0.027244147 0.05103634 -0.12761462 0.2591976 -0.1174792 -0.33253208 0.34928694 -0.3778521
-0.08396909 -0.37486744 -0.42519787 0.15292473 0.031009257 0.058728635 0.18894678 0.12230742
0.15771453 -0.27988127 0.70341593 0.50854725 -0.40628484 0.36820588 0.26542798 0.41817525
0.4478707 0.44914037 -0.4457352 -0.18592745 0.1224608 -0.15071137 -0.4712536 -0.67853034
-0.52075917 0.16029738 0.77759814 0.4952098 -0.005591885 -0.10501399 0.70174235 0.1629298
-0.26187894 -0.105687246 0.1531268 -0.42017242 -0.32830736 0.060399763 0.23716271 0.21083951
-0.24891852 0.24133672 -0.045209695 0.60950416 -0.23673563 -0.28942645 0.4937962 0.51904345
0.2852199 0.31980824 0.31314313 0.47233024 0.14758839 0.046452537 -0.22618309 0.00465769
0.04550719 -0.3500586 0.23653339 0.21522291 0.10444738 0.094613306 -0.21136115 0.30551597
0.35933903 0.4670759 0.5165905 0.5109829 0.19711562 0.049740043 0.022949077 -0.4538692
-0.054358393 0.12742998 -0.3542007 -0.21046065 0.2548664 -0.17094669 0.6236701 0.081554666
0.4826896 -0.33361244 0.07501631 -0.06642953 -0.47348797 0.4332952 0.7041629 0.66998273
0.31559184 0.011341137 0.1406682 0.2768775 0.027869213 0.43553275 -0.072161056 0.57609504
-0.1640013 0.31191808 -0.26536304 -0.3915248 0.48317933 0.29301244 0.0051558837 0.102663934
0.4250122 0.009886869 -0.50983745 -0.63855463 0.34042278 -0.36297032 -0.6034981 -0.60593116
0.4441735 0.3293228 0.07378741 0.21435307 0.064400166 0.18092436 -0.65522087 -0.2765253
0.018735247 -0.51443225 0.46073154 0.38820776 -0.2884339 -0.06736321 -0.5385842 0.18498376
-0.37572554 -0.25143012 0.19161437 -0.41133475 -0.44850135 0.045443673 0.46590656 0.5412357
0.48093894 0.4852059 0.025548087 -0.4633997 -0.26198527 0.10799257 0.6717793 0.109622225
0.3522685 0.32456616 0.37471342 0.51287544 0.17701602 -0.3703004 -0.47479284 -0.5560872
-0.06687163 -0.3154541 -0.7574206 -0.59946126 -0.035085775 0.32212546 -0.658717 -0.52604765
-0.03020948 -0.026626019 0.47969815 -0.015483087 0.2978689 0.47845256 -0.25196803 -0.59172595
00000000: e062 ae3e ae61 a3be 5c45 92bd a8bd e23e
00000010: 6b3c a6be e855 9dbe d92d ffbe 0d08 31bf
00000020: 44af b73e 716f 1d3e e2dd 493f 7569 193f
00000030: 4662 e33e 1efe 58be 7447 82be a0c3 fabe
00000040: 4017 20be 0b5d c53e dbed 97bc a30c 17be
00000050: 4191 3d3e 4c6b 59be 434a f6be 15cd 4dbe
00000060: 0e1f 3b3e 0ab0 433e 4e37 623d 7d72 bdbe
00000070: 7ba2 01be 43a6 7b3e 22a0 1b3f ebd1 ca3e
00000080: f658 95be 5b2a 65be 7ac1 b8bd 0d25 14bf
00000090: 756a aabd a170 65be da39 36be 29c7 613e
000000a0: f8d1 e0be e0ab 59be 5ea4 dabd 0b66 6e3e
000000b0: ce00 433e 3802 433e 64e8 da3e f44a dc3e
000000c0: b4bb 333e cd32 52be b5c8 383e 3900 943e
000000d0: a320 96bd 6953 893e 4700 20bf da5c 68be
000000e0: e46f 6b3e 0bfd 65be 03bc 403f d0c6 1a3f
000000f0: f586 83be 986a eabe 024b bdbd 2b52 8dbd
00000100: a4ff d73e af25 4a3e 2402 223f 74dc 8cbc
00000110: 6103 213b 94a1 0cbe 521d a63c e77e f93e
00000120: ff42 733d 71f5 fc3e 2f1a 1dbe e8fa b9be
00000130: 6103 adbe e384 eebd 9224 9dbe 002a 79be
00000140: 1e2f dfbc 7b0b 513d 68ad 02be 8cb5 843e
00000150: ef98 f0bd a541 aabe bdd5 b23e d575 c1be
00000160: fcf7 abbd a0ee bfbe 89b3 d9be 4d98 1c3e
00000170: 2007 fe3c 708d 703d 447b 413e 507c fa3d
00000180: eb7f 213e 994c 8fbe 1113 343f 2730 023f
00000190: 9104 d0be 7b85 bc3e 2de6 873e 111b d63e
000001a0: 4f4f e53e baf5 e53e 6737 e4be c463 3ebe
000001b0: bacc fa3d 1554 1abe 2748 f1be 2ab4 2dbf
000001c0: 7950 05bf ff24 243e ac10 473f 248c fd3e
000001d0: 223c b7bb 9311 d7bd 63a5 333f 12d7 263e
000001e0: ff14 86be 8e72 d8bd 46cd 1c3e d720 d7be
000001f0: e717 a8be be65 773d c8da 723e 50e6 573e
00000200: 7fe4 7ebe f920 773e cd2d 39bd 7708 1c3f
00000210: d36a 72be b42f 94be dbd2 fc3e 08e0 043f
00000220: 5808 923e e8bd a33e 4c54 a03e 45d5 f13e
00000230: 6921 173e 0445 3e3d 8a9c 67be 899f 983b
00000240: bf65 3a3d e13a b3be cf35 723e 6563 5c3e
00000250: 82e8 d53d 9fc4 c13d 0f6f 58be 976c 9c3e
00000260: 49fb b73e 9324 ef3e 463f 043f c6cf 023f
00000270: add8 493e 37bc 4b3d b4ff bb3c 8b61 e8be
00000280: e8a6 5ebd 017d 023e cb59 b5be ff82 57be
00000290: d97d 823e a60c 2fbe d8a8 1f3f 2206 a73d
000002a0: 1723 f73e 40cf aabe 27a2 993d 350c 88bd
000002b0: 046d f2be ded8 dd3e 0544 343f fd83 2b3f
000002c0: 4195 a13e 2dd0 393c 530b 103e e3c2 8d3e
000002d0: fa4d e43c 26fe de3e 2dc9 93bd f77a 133f
000002e0: f5ef 27be bab3 9f3e aadd 87be f075 c8be
000002f0: 4863 f73e ba05 963e b0f2 a83b 7841 d23d
00000300: 339b d93e 89fc 213c b584 02bf 5178 23bf
00000310: e54b ae3e 3fd7 b9be da7e 1abf 4e1e 1bbf
00000320: b66a e33e ff9c a83e db1d 973d 5f7f 5b3e
00000330: 3ce4 833d 3c44 393e 8ebc 27bf b994 8dbe
00000340: a97a 993c d5b1 03bf 01e5 eb3e 2bc3 c63e
00000350: 9cad 93be b9f5 89bd a7e0 09bf 626c 3d3e
00000360: 195f c0be 73bb 80be 8f36 443e 789a d2be
00000370: f8a1 e5be 2523 3a3d 4e8b ee3e 6c8e 0a3f
00000380: a13d f63e e86c f83e 394a d13c ba42 edbe
00000390: ef22 86be 352b dd3d baf9 2b3f 9e81 e03d
000003a0: 895c b43e 892d a63e 70da bf3e ce4b 033f
000003b0: b043 353e 0498 bdbe 0c18 f3be bb5b 0ebf
000003c0: fef3 88bd 3383 a1be 51e6 41bf 4b76 19bf
000003d0: 1ab6 0fbd a1ed a43e ada1 28bf 0fab 06bf
000003e0: df79 f7bc cf1e dabc ff9a f53e c6ac 7dbc
000003f0: 4682 983e bcf7 f43e f401 81be 5a7b 17bf

fc1.bias f4 [64]
0.43658632 0.27692226 0.49618545 0.24654467 -0.405387 0.36639363 -0.3189135 0.1849462
0.21505402 0.30939493 -0.39605358 0.17275473 -0.48383906 -0.11883972 0.15023239 -0.16797128
-0.031369563 -0.0025539852 0.38747916 0.40278277 0.3794674 0.4078397 0.34762633 -0.30834872
-0.01731472 -0.34564957 -0.22359219 0.2919216 0.35393757 0.32857028 0.17959115 -0.25328416
0.078824304 0.47680065 0.5102341 0.47105303 0.38504952 -0.31832498 0.08818612 0.12310684
0.44010952 0.070126094 -0.30840436 0.33425856 0.4945062 0.09029117 0.0659561 0.3220111
0.39667436 0.38004842 -0.15222628 0.3985335 -0.21375884 -0.45003608 0.2327978 0.0035544971
0.080122024 0.26785812 -0.09599339 0.3178404 0.19349203 0.33215755 -0.18982469 0.33818614
00000000: 3e88 df3e c1c8 8d3e 050c fe3e 3576 7c3e
00000010: e38e cfbe f297 bb3e a148 a3be 8962 3d3e
00000020: 1f37 5c3e 0369 9e3e 89c7 cabe 9ee6 303e
00000030: c1b9 f7be 3d62 f3bd 85d6 193e aa00 2cbe
00000040: 5f7d 00bd c360 27bb ab63 c63e 8b39 ce3e
00000050: 8d49 c23e 5dd0 d03e 14fc b13e e2df 9dbe
00000060: 9ad7 8dbc fbf8 b0be 5af5 64be bf76 953e
00000070: 4e37 b53e 5d3a a83e bee6 373e 76ae 81be
00000080: a36e a13d 371f f43e b49e 023f dd2d f13e
00000090: 3625 c53e 7efb a2be ed9a b43d 701f fc3d
000000a0: 0956 e13e 459e 8f3d 2de7 9dbe f023 ab3e
000000b0: eb2f fd3e 94ea b83d fe13 873d a4de a43e
000000c0: e718 cb3e b595 c23e 35e1 1bbe 950c cc3e
000000d0: 99e3 5abe 216b e6be 8c62 6e3e 91f2 683b
000000e0: 0417 a43d b324 893e 2f98 c4bd fabb a23e
000000f0: c622 463e 8e10 aa3e 6761 42be bc26 ad3e

fc2.weight f4 [2, 64]
-0.15891528 0.27278045 -0.16670118 0.017927617 0.03192985 0.11861876 0.105383396 -0.08576368
0.23480134 -0.1008773 0.013299788 -0.08359737 0.068283044 0.18226252 -0.2161374 -0.022753924
-0.05207596 -0.16896231 0.07017625 0.049949657 -0.033235505 -0.07122485 0.059964247 0.118661925
-0.16198395 -0.04602278 -0.038193792 0.19182028 -0.15627857 -0.1010896 0.031314336 0.09042847
-0.16096139 -0.15823779 -0.13811761 0.08619307 0.023200871 0.032349367 -0.16123496 0.05203529
0.03727418 -0.18467109 0.05281647 -0.13675387 -0.15544273 -0.23786877 0.17310782 0.019906843
0.07397218 0.17882667 -0.0111598335 0.13174869 -0.046352766 0.002516099 0.13292772 -0.14556517
0.064535804 -0.13120894 -0.17205836 0.13726912 0.2302968 0.13470678 0.027990043 0.092870004
0.08197174 -0.040397655 0.1069631 -0.12782525 0.10435671 -0.0061307186 -0.086546496 0.12643152
-0.25020027 0.14290355 -0.0059272377 0.15124448 -0.028234562 -0.19909717 0.105767824 -0.023361668
0.08107848 0.14424804 -0.16244657 0.026520103 0.1301663 -0.07282091 0.03372858 -0.11800134
0.033386108 -0.0764201 -0.08502821 -0.22458623 0.11150474 0.002706965 -0.14714795 0.0649266
0.2303637 0.21105558 0.15929535 0.036661416 -0.0019406923 -0.08685745 0.17585471 -0.084579185
-0.022901457 0.0032391716 0.027580328 0.21534765 0.123164736 0.0756824 -0.1924343 0.006098128
-0.2186139 -0.10215694 0.1216042 -0.15251137 0.13056168 -0.12123222 -0.038167197 0.030205248
-0.1647272 0.13560113 0.24573645 -0.23671249 -0.28827888 -0.0281172 0.05571306 -0.17090057
00000000: b0ba 22be e1a9 8b3e b7b3 2abe f0dc 923c
00000010: e0c8 023d 64ee f23d 40d3 d73d dea4 afbd
00000020: c36f 703e c298 cebd 5be7 593c 1935 abbd
00000030: fbd7 8b3d 07a3 3a3e 1f53 5dbe 7066 babc
00000040: 9a4d 55bd 7504 2dbe 91b8 8f3d 0398 4c3d
00000050: f421 08bd 56de 91bd 129d 753d 0605 f33d
00000060: 1fdf 25be 6282 3cbd 1871 1cbd 896c 443e
00000070: 7d07 20be 1008 cfbd 7643 003d 9032 b93d
00000080: 10d3 24be 1609 22be b46e 0dbe fe85 b03d
00000090: c10f be3c c580 043d c71a 25be f522 553d
000000a0: d0ac 183d 6b1a 3dbe 1556 583d 3509 0cbe
000000b0: 612c 1fbe df93 73be 2d43 313e ad13 a33c
000000c0: ba7e 973d 571e 373e bcd7 36bc 21e9 063e
000000d0: 66dc 3dbd 23e5 243b 341e 083e 090f 15be
000000e0: 592b 843d a35b 06be 1130 30be 4790 0c3e
000000f0: edd2 6b3e 93f0 093e 604b e53c a132 be3d
00000100: cde0 a73d 0378 25bd 780f db3d 9fe4 02be
00000110: f9b8 d53d 32e4 c8bb 4a3f b1bd 4477 013e
00000120: 401a 80be 4f55 123e 4639 c2bb d5df 1a3e
00000130: 2b4c e7bc 21e0 4bbe cd9c d83d f860 bfbc
00000140: 790c a63d c2b5 133e 6558 26be b040 d93c
00000150: 514a 053e 2123 95bd fb26 0a3d b0aa f1bd
00000160: dfbf 083d 2482 9cbd 4523 aebd eff9 65be
00000170: 995c e43d 5667 313b f4ad 16be 3df8 843d
00000180: 76e4 6b3e f41e 583e 521e 233e 482a 163d
00000190: d45e feba 52e2 b1bd 4213 343e da37 adbd
000001a0: d69b bbbc 4848 543b 24f0 e13c 1884 5c3e
000001b0: cb3d fc3d 60ff 9a3d 7f0d 45be ced2 c73b
000001c0: 52dc 5fbe a837 d1bd 9f0b f93d f12b 1cbe
000001d0: f6b1 053e 9948 f8bd 3555 1cbd ff70 f73c
000001e0: 3fae 28be 06db 0a3e 56a2 7b3e c264 72be
000001f0: 4a99 93be 0b56 e6bc 6133 643d 8f00 2fbe

fc2.bias f4 [2]
-0.09941775 -0.032973003
00000000: 899b cbbd b30e 07bd
