Acrobot/Actorbot_actor.pth (torch, 4744 bytes, 4 tensors)

fc1.weight f4 [64, 6]
-0.32880196 -0.20736063 -0.11119149 -0.10232767 -0.21238044 -0.43529898 -0.100819424 0.37868163
-0.27054423 0.3180902 -0.09280831 0.01915704 -0.25281397 -0.37995726 -0.037568316 0.27738598
-0.16733634 -0.42686415 0.13062261 0.021098087 0.13043554 0.38015544 0.2535567 0.5692542
0.039816137 0.03970231 0.32976133 -0.11063113 0.33491224 -0.5978583 0.014118352 -0.35161412
0.06775741 0.02222413 -0.09963866 0.5165697 0.20308378 -0.27572384 0.21775295 -0.14980467
-0.100341685 -0.25195506 0.43500453 -0.019850098 -0.20254208 0.1116818 -0.08877765 0.39078626
-0.15842117 -0.19780658 0.32710668 0.28362688 -0.2768848 -0.19117828 0.12707357 -0.044219427
0.47832695 -0.07386083 -0.017374907 -0.48597416 -0.3984496 -0.04147868 -0.13460515 -0.23857945
0.17351182 -0.36720526 0.09774892 0.14043325 0.4017019 -0.3490274 -0.19277857 0.53934014
-0.05377239 0.3853678 -0.3341635 -0.27255 -0.35665175 0.33783856 -0.38187724 -0.049540736
0.20057489 0.22775769 0.16273609 0.19080593 -0.014004547 -0.18073833 -0.13858631 -0.10194389
-0.44780937 0.4097552 0.16514403 0.17784084 -0.05827499 -0.17179088 -0.31853437 0.24965629
-0.031942755 -0.03543541 -0.40767455 -0.10046814 -0.3638333 -0.15943599 0.17074344 0.2771587
0.25845206 0.0071383184 0.38687763 -0.38347578 -0.31054103 -0.50795895 -0.06401289 -0.24458107
0.17098048 -0.02643606 0.26483303 0.2743077 -0.2608896 0.22628811 -0.23457246 0.2332181
0.34198457 -0.31159598 0.23841566 0.27208725 -0.029188642 0.35350728 0.4802795 -0.20446119
0.22412528 -0.2837247 -0.017539255 -0.55720454 -0.21213877 0.15890501 0.042192407 -0.2915351
0.2065578 -0.40447727 0.31755897 0.26688814 0.4187771 0.14959171 -0.11023423 0.5026858
-0.28718495 -0.22658762 -0.14952962 0.064503826 0.09803412 -0.181813 0.20348588 0.29984906
-0.2146075 -0.084714375 -0.1942279 0.44679445 -0.26768717 0.3843571 0.17256376 0.30090743
0.08017581 0.2557417 0.060308583 -0.12793484 0.233728 -0.15438934 0.3494722 -0.4449191
0.20587991 0.23546946 0.14967501 -0.05054793 0.11680954 0.11171433 0.268067 0.55526304
0.19515806 -0.30167252 -0.4412787 -0.015449083 0.111090735 -0.023474347 -0.13746157 0.17599875
0.25183225 0.11465355 -0.17597838 -0.18934147 0.43438292 -0.42813563 -0.28885692 0.39043546
-0.04472887 -0.102961145 -0.063009925 0.39198583 0.2815356 0.37569988 -0.2729211 0.28200158
-0.18112414 0.08079228 -0.10997868 0.31456777 0.13436481 -0.21302146 0.2536315 0.3993757
0.05782066 0.29665276 -0.15779501 0.053898223 0.38400555 -0.016048783 -0.31602633 0.5497361
0.43473944 -0.38825107 0.1735252 -0.18517308 -0.08098188 -0.4926838 0.15293407 -0.21862243
0.46829933 0.13595639 0.19820918 0.1916576 0.2599175 -0.3458022 0.47579154 0.17149636
-0.5135823 0.36658752 0.09449299 -0.36235875 0.17928854 0.15094891 -0.25727937 0.6416455
0.28376776 0.050802708 0.23073573 0.4814853 0.03210705 0.23252732 0.29081973 -0.09461751
0.21247798 -0.24433696 0.04689381 -0.40400776 0.26581413 -0.05833407 0.09355948 -0.15798223
00000000: bb58 a8be 5856 54be 5db8 e3bd 2b91 d1bd
00000010: 427a 59be 82df debe 6a7a cebd 8fe2 c13e
00000020: c684 8abe b8dc a23e 4912 bebd 3aef 9c3c
00000030: d570 81be c289 c2be 3ce1 19bd 8905 8e3e
00000040: 385a 2bbe f08d dabe efc1 053e e5d5 ac3c
00000050: e590 053e bca3 c23e 2fd2 813e a5ba 113f
00000060: 3f16 233d e49e 223d 7ad6 a83e 9392 e2bd
00000070: 9e79 ab3e 3e0d 19bf a950 673c c406 b4be
00000080: 66c4 8a3d 610f b63c 5b0f ccbd e93d 043f
00000090: 32f5 4f3e ad2b 8dbe a1fa 5e3e 6566 19be
000000a0: f17f cdbd 4100 81be eab8 de3e ac9c a2bc
000000b0: 3167 4fbe 6db9 e43d 0ed1 b5bd 2315 c83e
000000c0: 2939 22be cf8d 4abe 877a a73e 8b37 913e
000000d0: d8c3 8dbe 3dc4 43be 931f 023e 6e1f 35bd
000000e0: 45e7 f43e 5944 97bd d255 8ebc 9bd1 f8be
000000f0: 9601 ccbe 8ce5 29bd efd5 09be 2c4e 74be
00000100: 15ad 313e 5402 bcbe 9630 c83d bccd 0f3e
00000110: dfab cd3e b8b3 b2be bf67 45be 3212 0a3f
00000120: 7040 5cbd ee4e c53e 7a17 abbe ac8b 8bbe
00000130: 0f9b b6be 2df9 ac3e 6a85 c3be 3aeb 4abd
00000140: 8163 4d3e 5039 693e 4aa4 263e a162 433e
00000150: 5473 65bc 7813 39be 92e9 0dbe f5c7 d0bd
00000160: 4547 e5be 6fcb d13e 841b 293e e91b 363e
00000170: c2b1 6ebd f3e9 2fbe f016 a3be e6a5 7f3e
00000180: 68d6 02bd b824 11bd b8ba d0be 3dc2 cdbd
00000190: 5c48 babe 3043 23be 5ed7 2e3e bfe7 8d3e
000001a0: d453 843e 8ee8 e93b d314 c63e f056 c4be
000001b0: 3cff 9ebe 9909 02bf 3119 83bd 7673 7abe
000001c0: 8215 2f3e 7090 d8bc 3298 873e 0f72 8c3e
000001d0: 5293 85be 12b8 673e c333 70be bad0 6e3e
000001e0: 9a18 af3e 8289 9fbe 3c23 743e 054f 8b3e
000001f0: 051d efbc e8fe b43e 32e7 f53e 465e 51be
00000200: 1981 653e 5d44 91be 7cae 8fbc f5a4 0ebf
00000210: e83a 59be ffb7 223e f2d1 2c3d 1744 95be
00000220: e383 533e a517 cfbe 1797 a23e 90a5 883e
00000230: f469 d63e 922e 193e 7cc2 e1bd 04b0 003f
00000240: e809 93be 9606 68be 4b1e 19be 951a 843d
00000250: 1dc6 c83d 302d 3abe 9a5e 503e d185 993e
00000260: 12c2 5bbe bb7e adbd aee3 46be 3ec2 e43e
00000270: 4b0e 89be 74ca c43e 8eb4 303e 8a10 9a3e
00000280: 3733 a43d 93f0 823e 2206 773d 5a01 03be
00000290: 6556 6f3e 3d18 1ebe 05ee b23e 70cc e3be
000002a0: 2fd2 523e e81e 713e 6844 193e 590b 4fbd
000002b0: d739 ef3d 7cca e43d 1440 893e b825 0e3f
000002c0: 84d7 473e d274 9abe 48ef e1be 271e 7dbc
000002d0: 8a83 e33d 464d c0bc bac2 0cbe 0439 343e
000002e0: 28f0 803e 7bcf ea3d ad33 34be bbe2 41be
000002f0: 7067 de3e 9834 dbbe 0ee5 93be 28e7 c73e
00000300: 9f35 37bd 4bdd d2bd 590b 81bd 5eb2 c83e
00000310: 6f25 903e bc5b c03e 50bc 8bbe 8362 903e
00000320: 9b78 39be 6c76 a53d 813c e1bd 070f a13e
00000330: ee96 093e 4c22 5abe fddb 813e f97a cc3e
00000340: 5bd5 6c3d dfe2 973e 0495 21be 62c4 5c3d
00000350: 609c c43e bd78 83bc 34ce a1be 81bb 0c3f
00000360: 2b96 de3e d8c8 c6be 97b0 313e 039e 3dbe
00000370: d4d9 a5bd 0d41 fcbe c09a 1c3e 8fde 5fbe
00000380: eec4 ef3e 2738 0b3e 59f7 4a3e e441 443e
00000390: e813 853e fc0c b1be f39a f33e be9c 2f3e
000003a0: 217a 03bf 5cb1 bb3e 8a85 c13d 1687 b9be
000003b0: 6a97 373e 5a92 1a3e 1fba 83be e142 243f
000003c0: 024a 913e 8016 503d fd45 6c3e 3e85 f63e
000003d0: af82 033d a41b 6e3e 53e6 943e d3c6 c1bd
000003e0: d493 593e 7833 7abe b913 403d 1bda cebe
000003f0: ca18 883e b5ef 6ebd 1d9c bf3d 18c6 21be

fc1.bias f4 [64]
0.18365444 0.009209087 -0.052698445 0.20858577 0.4570364 0.26680934 0.4086199 0.33919698
-0.41577685 -0.1455167 -0.42168197 0.26639298 -0.23899336 0.25814718 0.20034948 0.13431294
-0.23644459 0.31207108 -0.085875124 0.04769697 0.2820896 -0.1825346 0.5018126 0.36086562
0.02483666 0.2692554 -0.4701995 0.09589522 0.28126544 -0.14818437 -0.4325676 0.15132813
-0.34658155 -0.39799008 0.45804557 0.49531576 0.046009794 -0.04772476 0.12249861 0.24979451
-0.18709876 -0.27900276 0.25328183 0.17929557 -0.33162454 -0.16565384 0.46331024 0.32151476
-0.35741982 0.19414903 0.48562136 -0.27309075 -0.16136518 0.16692221 0.11399226 0.02312033
0.36736867 0.12003924 0.12939376 -0.060226858 -0.2979438 0.25729275 0.06759246 -0.052774277
00000000: e90f 3c3e b6e1 163c 53da 57bd 8297 553e
00000010: ad00 ea3e 3c9b 883e a136 d13e 3aab ad3e
00000020: b4e0 d4be 5402 15be b3e6 d7be a964 883e
00000030: adba 74be de2b 843e 6a28 4d3e 5589 093e
00000040: 881e 72be c8c7 9f3e 4cdf afbd e65d 433d
00000050: 0c6e 903e 5aea 3abe ca76 003f 61c3 b83e
00000060: 4076 cb3c d8db 893e fdbd f0be b764 c43d
00000070: 0602 903e a5bd 17be 8079 ddbe c3f5 1a3e
00000080: 2373 b1be 5bc5 cbbe f384 ea3e 079a fd3e
00000090: c474 3c3d 0a7b 43bd 8de0 fa3d 22ca 7f3e
000000a0: d196 3fbe 73d9 8ebe 28ae 813e 4299 373e
000000b0: b1ca a9be 29a1 29be 0037 ed3e 959d a43e
000000c0: bbff b6be 01cf 463e 5da3 f83e 8dd2 8bbe
000000d0: ea3c 25be a8ed 2a3e c674 e93d d966 bd3c
000000e0: bf17 bc3e 22d7 f53d cc7f 043e 70b0 76bd
000000f0: 178c 98be e0bb 833e ea6d 8a3d d729 58bd

fc2.weight f4 [3, 64]
0.055523653 -0.21252404 0.22164041 -0.14615266 0.221658 -0.1491809 0.21406233 -0.0991021
-0.007999464 0.27078557 -0.077747636 -0.2030861 -0.043046586 -0.09919244 -0.11186479 -0.05586867
-0.06377046 0.19541663 0.18128464 0.037921377 -0.063106425 0.27556145 0.19968128 -0.17255926
0.010007292 -0.21526809 0.09180375 0.18893674 0.09101073 -0.06707629 0.08728707 -0.16156302
-0.13968207 -0.0048521385 0.0055818623 -0.29570386 0.31257468 -0.050459802 -0.07189881 -0.20607191
-0.0668453 0.2374433 0.26517496 0.23152587 0.11729966 0.17243537 -0.021193089 0.2301093
0.02398697 -0.14516035 0.09065446 0.19122028 0.3332798 -0.021172695 -0.09598215 -0.13598442
-0.01242691 0.13346012 0.14136966 0.21457013 0.12647103 0.18233566 0.3064964 0.05863525
0.080858596 0.1777125 0.14822952 0.0077362414 -0.10500594 0.10960347 -0.29089516 -0.17087299
0.18204615 -0.20667285 0.06579522 -0.1104112 -0.13471754 0.087205246 -0.005379123 -0.032154903
0.046899747 -0.19403127 -0.07927326 0.037039716 -0.07242166 -0.1611578 -0.030238016 -0.21132962
-0.07020418 -0.022354394 0.11228238 -0.10204075 -0.044510294 -0.15069906 0.06596047 -0.15675063
0.10774806 -0.04926209 -0.18149337 -0.26594427 -0.19457725 -0.09673837 -0.15746331 0.023721566
-0.09611319 -0.08951727 -0.21770184 -0.079048805 -0.019790947 0.08582329 0.103842594 -0.01684593
-0.11065964 -0.01485795 -0.13818394 0.09743841 -0.15968145 0.11930987 -0.23013024 -0.03334711
0.06401759 -0.18353619 0.061062437 -0.08907362 0.058427345 0.009153202 -0.040745825 0.0592224
-0.10185707 0.17634238 -0.13838392 0.08079877 -0.19328094 0.23313941 -0.013668286 0.28691074
0.0317663 -0.07730241 0.009193352 0.2562333 0.21528883 0.06954459 0.18011957 0.25357723
-0.004533361 -0.17312789 -0.13667797 0.13381417 0.14413789 -0.16523632 -0.013136505 0.2827691
-0.17067316 0.14046377 0.07339202 -0.30144182 0.17508265 0.118725725 -0.031615306 0.2980454
0.049441755 0.064536214 0.15711749 0.41326877 -0.03341144 0.12330189 0.32063305 0.22814694
0.28775355 -0.07822128 -0.0352294 -0.21726727 0.121462055 0.019881036 0.21501637 -0.17295523
0.08444684 0.27749476 -0.26561683 -0.14095075 -0.1530111 0.084871404 0.23922835 0.23320219
0.112839006 0.065045305 -0.15313877 -0.11246609 -0.18848327 -0.24703969 -0.068864524 -0.16328646
00000000: c56c 633d e79f 59be b4f5 623e 0ba9 15be
00000010: 51fa 623e e1c2 18be 2833 5b3e 0bf6 cabd
00000020: 2f10 03bc 68a4 8a3e 273a 9fbd cdf5 4fbe
00000030: 9e51 30bd 6825 cbbd 5e19 e5bd 8cd6 64bd
00000040: 169a 82bd 4c1b 483e aea2 393e 7253 1b3d
00000050: f13d 81bd 6416 8d3e 4079 4c3e 60b3 30be
00000060: a0f5 233c 3d6f 5cbe 9b03 bc3d a278 413e
00000070: d563 ba3d 4b5f 89bd 90c3 b23d c770 25be
00000080: d108 0fbe b0fe 9ebb 0ee8 b63b 7f66 97be
00000090: ca09 a03e f0ae 4ebd af3f 93bd 8404 53be
000000a0: 30e6 88bd 5624 733e 03c5 873e 1e15 6d3e
000000b0: ce3a f03d e692 303e 219d adbc c6a1 6b3e
000000c0: 5280 c43c eaa4 14be 0ca9 b93d 40cf 433e
000000d0: a6a3 aa3e 5c72 adbc 4a92 c4bd 803f 0bbe
000000e0: 3d9a 4bbc c5a9 083e 35c3 103e 46b8 5b3e
000000f0: 9f81 013e 33b6 3a3e 19ed 9c3e 842b 703d
00000100: 3199 a53d 44fa 353e 7bc9 173e 4c80 fd3b
00000110: 5b0d d7bd c977 e03d 36f0 94be 54f9 2ebe
00000120: 4e6a 3a3e 0ca2 53be a5bf 863d 441f e2bd
00000130: 65f3 09be aa98 b23d 5b43 b0bb dcb4 03bd
00000140: f319 403d 22b0 46be 055a a2bd f5b6 173d
00000150: cf51 94bd 8d06 25be b7b5 f7bc cb66 58be
00000160: 36c7 8fbd 9020 b7bc 4ef4 e53d befa d0bd
00000170: 6d50 36bd db50 1abe 4816 873d 3d83 20be
00000180: 04ab dc3d 0cc7 49bd 66d9 39be d929 88be
00000190: 423f 47be c41e c6bd 103e 21be bb53 c23c
000001a0: fed6 c4bd d554 b7bd 3bed 5ebe 57e4 a1bd
000001b0: a020 a2bc 1fc4 af3d 6dab d43d 7a00 8abc
000001c0: 85a1 e2bd c26e 73bc 1780 0dbe ca8d c73d
000001d0: 8983 23be bc58 f43d 43a7 6bbe fb96 08bd
000001e0: a71b 833d e9f0 3bbe 9b1c 7a3d 3b6c b6bd
000001f0: 8351 6f3d 50f7 153c 18e5 26bd 3093 723d
00000200: 719a d0bd 1993 343e 84b4 0dbe d379 a53d
00000210: 70eb 45be 19bc 6e3e f2f0 5fbc f7e5 923e
00000220: 611d 023d ba50 9ebd b79f 163c 0331 833e
00000230: ad74 5c3e 656d 8e3d 4471 383e e0d4 813e
00000240: 978c 94bb 7048 31be 4ff5 0bbe 9506 093e
00000250: e298 133e b633 29be 7f3a 57bc 1dc7 903e
00000260: f2c4 2ebe bcd5 0f3e 8e4e 963d 9556 9abe
00000270: de48 333e 7926 f33d 0d7f 01bd 6899 983e
00000280: 7083 4a3d 902b 843d 68e3 203e f797 d33e
00000290: 6fda 08bd b485 fc3d 042a a43e 5a9f 693e
000002a0: 6f54 933e 7a32 a0bd b44c 10bd 507b 5ebe
000002b0: 19c1 f83d 8edd a23c 402d 5c3e 2d1b 31be
000002c0: 77f2 ac3d cb13 8e3e eefe 87be 6555 10be
000002d0: f1ae 1cbe 0fd1 ad3d 47f8 743e 8ecc 6e3e
000002e0: 2318 e73d 7936 853d 69d0 1cbe 9f54 e6bd
000002f0: c201 41be f9f7 7cbe d808 8dbd 9134 27be

fc2.bias f4 [3]
0.009014901 -0.032593094 0.00038253158
00000000: 3cb3 133c 5680 05bd 858e c839
