Acrobot/Actorbot_critic.pth (torch, 4240 bytes, 3 tensors)

fc1.weight f4 [64, 6]
000000 f1 ab 99 be 82 a5 a2 3f 06 5a d8 3f a8 be 99 3e
       -0.30013993 1.2706759 1.6902473 0.30028272
000010 f2 c9 26 40 cb 99 0d 40 03 93 6e 3f ea d7 6b bc
       2.6060758 2.2125118 0.9319307 -0.01439474
000020 da e1 16 bf 8d 92 a7 3e 93 ee 86 3c be 35 7c 3a
       -0.5893837 0.32728997 0.016471183 0.00096210453
000030 5f 03 63 3f a1 94 32 40 36 dd 44 bf 50 85 05 40
       0.8867702 2.7903216 -0.7690004 2.0862617
000040 95 67 81 40 9f 79 ac 3f 46 a0 5b be c5 ca 36 3f
       4.0438943 1.3474616 -0.21447858 0.7140315
000050 b1 06 73 bf bc 09 04 3f 32 e7 bf 3d 21 83 a6 3e
       -0.94932085 0.51577353 0.09370269 0.32521918
000060 fb d2 0f bf 78 ba 5f be c1 28 40 be 2b 2f 3c be
       -0.56181306 -0.21848476 -0.18765546 -0.18377368
000070 c0 74 07 bb 6d 97 de bc 7b 8f 8b c0 34 ee 73 3e
       -0.0020668954 -0.027171815 -4.3612647 0.23821336
000080 ae 56 0d c0 d2 cb 12 c0 8c 75 53 be bb e8 ca 3f
       -2.2084155 -2.2936902 -0.2065031 1.5852274
000090 ba 48 ce bf b6 a1 24 40 fd 37 39 c0 3f e7 34 3f
       -1.6115944 2.57237 -2.8940423 0.70665354
0000a0 7d 88 bf 3f b5 1e 84 3f ac 8a ca bf 99 1d 92 3e
       1.4963528 1.0321871 -1.5823569 0.28538206
0000b0 cb 2b 18 c0 ca 43 d5 bf 59 15 f5 3d e4 60 9a be
       -2.377673 -1.6661313 0.11966962 -0.30152047
0000c0 6f 82 bf 3e bd 47 ca be 44 54 2c bf 0d c4 0a bf
       0.374042 -0.39507857 -0.6731608 -0.542054
0000d0 98 09 e4 3c bc 36 ee 3c e3 ef 1e c0 a5 9c 36 3f
       0.027836606 0.029078834 -2.4833915 0.7133277
0000e0 0b 69 8a bd 15 33 39 bf 49 5a 1c 3e ed d9 d4 3b
       -0.067583166 -0.7234357 0.15268816 0.0064957053
0000f0 f5 7d c3 bf c9 64 b6 bf 0f 91 35 c0 7e c3 4d c0
       -1.5272814 -1.4249507 -2.8369787 -3.215057
000100 8f f9 e8 3e 6d 29 01 bf 6f e5 e8 3f f4 ee f6 bd
       0.45502898 -0.50453836 1.8195018 -0.120572954
000110 07 f0 af 3e f8 6a 5e 3f b0 a5 a8 3e bb fe 10 3f
       0.34362814 0.8688197 0.3293891 0.5663869
000120 e4 14 59 bf 48 ee 62 3f 64 1f 57 be a1 d4 e2 3e
       -0.847975 0.8864484 -0.21008068 0.44302848
000130 4b 31 d0 bd 4d b6 d1 be 48 a8 ee 3d aa bc 01 3f
       -0.10165652 -0.40959397 0.11653191 0.50678504
000140 6a fa ae bf 44 7a 13 3d 4b 73 ea 3d cc 6c ad 3e
       -1.367017 0.036005273 0.11447772 0.33872068
000150 ff 97 65 bf 3d ce b0 3f 3d eb 57 c0 94 7b bd 3f
       -0.8968505 1.3812939 -3.3737328 1.4803338
000160 7f 7b 0a 40 96 05 93 be ad 2a ba 3f 34 b2 b7 3e
       2.1637876 -0.287152 1.4544274 0.35878146
000170 82 8a 6c 3e f7 24 fc be 22 ac 00 3f 8c 34 86 bd
       0.23099712 -0.49246952 0.50262654 -0.06552991
000180 03 60 fe bd cc a0 38 3d cc 34 ad be 7b 5c 0b bf
       -0.124206565 0.045075223 -0.33829343 -0.5443799
000190 3c 65 2a 3e fb 84 e2 3d 57 53 e3 3e 41 00 ec 3d
       0.1664018 0.1106052 0.4439952 0.11523486
0001a0 55 b1 55 be cb 61 41 be 91 75 c1 3e a0 9e c3 3e
       -0.20868428 -0.18884961 0.3778501 0.3820696
0001b0 ee 97 4b be d9 4d dc 3e c0 20 2e bf 7f d9 6c 3e
       -0.19882175 0.43028143 -0.6801872 0.23129843
0001c0 76 52 34 3c f3 28 99 bc 1f 6a 6d c0 a4 60 90 3f
       0.011005988 -0.018696284 -3.709602 1.1279492
0001d0 ea 2c 2b c0 81 f8 d4 3f ec e7 8c 3f 66 d3 50 3f
       -2.6746163 1.6638337 1.1008277 0.8157257
0001e0 f6 d5 52 c0 76 a6 6b bf bb a5 10 c0 75 2f 52 c0
       -3.2943091 -0.92050874 -2.2601154 -3.2841465
0001f0 72 1a da 3e 50 07 8f 3f 82 89 48 c0 bc f0 2c c0
       0.425983 1.1174107 -3.1333928 -2.7021933
000200 a8 17 c9 bf e8 d8 0b c0 d6 df 85 bf 22 c9 96 bf
       -1.5710344 -2.185114 -1.0458934 -1.1780131
000210 91 12 86 c0 be 0a 13 3f c9 b6 c3 bf 8a 2b 07 40
       -4.1897664 0.57438266 -1.5290157 2.1120324
000220 26 91 3a bf 5a 92 db be 4c af ee bf 7c e5 9d 3f
       -0.7287773 -0.42885095 -1.8647246 1.2335658
000230 d9 7e bc bf 4a cf b2 bf 3e 57 e2 be ca 8e 75 be
       -1.4726211 -1.396951 -0.44207186 -0.23980251
000240 87 85 70 3e c0 88 4b 3f fd 03 a9 3e c4 3c 56 3d
       0.23488437 0.7950554 0.33010855 0.052304044
000250 10 a1 10 3e 2d 71 b9 3d f6 7b 1d c0 27 b7 98 3e
       0.1412394 0.0905479 -2.460691 0.29827234
000260 50 94 a1 bf 4e 09 cf 3f fc f5 60 bf 65 14 b4 be
       -1.2623386 1.6174715 -0.8787534 -0.3517181
000270 a8 f5 0c c0 1f f2 55 40 c9 8d 56 c0 92 6c aa bf
       -2.2024937 3.342903 -3.3524039 -1.3314383
000280 48 05 8e bf d0 82 fc bd d8 7b a9 3e 57 df 5d bf
       -1.1095362 -0.12329638 0.33102298 -0.86668915
000290 65 59 8d bf d3 51 02 c0 a3 74 08 40 22 68 19 be
       -1.1042906 -2.0362442 2.132119 -0.1498113
0002a0 9f b3 a3 3f ec 6a 98 bf 9b bb 39 3e a4 55 6a bf
       1.2789191 -1.190763 0.18137972 -0.9153693
0002b0 8d 98 63 c0 b1 c9 92 bf 67 14 52 40 cf 31 dc 3e
       -3.556186 -1.1467801 3.2824953 0.4300675
0002c0 ad 37 77 3f 87 c7 e5 3b 77 7b 41 bd 59 ad 98 be
       0.9656933 0.007012311 -0.047236886 -0.29819754
0002d0 97 c4 54 c0 01 8a f2 bf de 3e 7e be 50 03 20 40
       -3.324499 -1.8948365 -0.2482867 2.5002022
0002e0 75 d0 a2 bf be a9 5f bf ed 81 f0 bf 1e 83 95 c0
       -1.2719866 -0.8736838 -1.878965 -4.6722555
0002f0 14 15 db 3f ad 9a 97 bf 42 a0 ab bf fc 56 e5 bf
       1.7115808 -1.1844078 -1.3408282 -1.791717
000300 ee 8e 98 c0 25 fe 1d 40 4a f9 1d c0 6d 4b 40 bf
       -4.7674475 2.4686368 -2.4683404 -0.7511509
000310 de c0 e2 3f 37 b5 9c 3f c6 cb f5 3d af 06 02 c0
       1.7715108 1.2242802 0.12001757 -2.031658
000320 7b a7 37 c0 3d 49 34 c0 db de f6 3e 07 5c d7 3f
       -2.8695972 -2.81697 0.482169 1.682496
000330 6e c7 87 bf f0 6b 00 be 15 3f 34 bf e8 91 db 3f
       -1.0607736 -0.12541175 -0.70408756 1.7153902
000340 ac 08 3d 3f 4c 7f 76 bf 85 a9 e6 be 15 20 66 be
       0.7384136 -0.9628799 -0.45051208 -0.22473176
000350 3a b0 dc be 7c 78 00 be 3f 49 9d bc 74 60 52 bd
       -0.431032 -0.12545961 -0.019199966 -0.051361516
000360 74 c2 e5 40 49 9b 8c bf 62 39 89 3f ba f4 5b 3f
       7.179987 -1.0984889 1.0720637 0.859203
000370 38 a8 06 40 ba 60 bc bd cc b4 b9 bf 26 3c 9b 3e
       2.1040173 -0.09198137 -1.45083 0.30319327
000380 a7 b4 ef bc 67 7a a6 3e 16 1e 85 3e 77 11 55 3c
       -0.029260946 0.3251526 0.25999516 0.013004652
000390 4c 6e 2e 3e f2 00 93 be 11 0c 59 bf 9c e8 f5 3c
       0.17034262 -0.2871166 -0.84784037 0.030018143
0003a0 f3 1c ad 3e 78 db 8f 3e 32 8f 24 3f 59 d8 fc bf
       0.3381115 0.2809713 0.64281 -1.9753524
0003b0 a8 54 31 40 eb 7e f0 bf 47 42 3a 40 8f 15 a2 3f
       2.770792 -1.8788732 2.9102952 1.2662829
0003c0 51 f7 04 3f 1c a3 81 3f 26 b9 52 c0 e2 08 a2 3f
       0.51939875 1.0127902 -3.2925506 1.2658961
0003d0 1a 90 2a bf 33 11 44 3f ca 1c f6 40 b5 b5 09 40
       -0.6662613 0.76588744 7.6910143 2.1517155
0003e0 97 27 1c 40 b1 6f c1 be d4 d2 12 40 37 ef c7 3f
       2.4399164 -0.37780526 2.294118 1.5619878
0003f0 3f e7 10 40 de 59 8a bd 57 b8 12 40 b4 76 10 3f
       2.2641141 -0.06755422 2.2925012 0.56431127

fc1.bias f4 [64]
000000 1d 72 86 bf b8 a0 ea bf 58 3a 29 bf 20 55 a3 bf
       -1.0503575 -1.8330297 -0.6610465 -1.2760353
000010 e4 ad 95 bf eb f3 44 c0 78 0b a2 c0 5a e8 5c c0
       -1.1693692 -3.0773876 -5.0639 -3.4516816
000020 cf f7 f8 bf 44 bd a3 c0 38 2e 9a c0 88 c3 94 3f
       -1.9450625 -5.1168537 -4.818142 1.1622171
000030 f1 33 65 c0 b2 31 bd be b1 1f 58 c0 29 dd c3 bd
       -3.5812953 -0.36951977 -3.3769343 -0.09563667
000040 0a f7 1d c0 48 6a a3 bf 51 1c b9 bf b1 8e 5e c0
       -2.468203 -1.276681 -1.4461766 -3.4774592
000050 09 8e 33 c0 12 60 ad c0 39 9e 84 c0 74 80 08 c0
       -2.8055441 -5.4179773 -4.1443143 -2.1328402
000060 23 fb 4d c0 81 d6 85 c0 93 ad d9 bf ca 69 81 c0
       -3.2184532 -4.1824346 -1.7006096 -4.0441637
000070 72 37 81 c0 24 59 6d 40 c8 35 a7 c0 20 6b f1 be
       -4.038018 3.7085657 -5.225315 -0.47152042
000080 0b f1 12 c0 38 1c 5d c0 1e 6f bb bf 34 00 bc bf
       -2.295962 -3.4548473 -1.4643285 -1.4687562
000090 40 53 cf 40 72 8d 15 c0 9f 7a 68 bf 03 9f 53 c0
       6.4789124 -2.3367581 -0.90812105 -3.3065803
0000a0 bb fa b8 c0 82 6d 55 40 77 c0 c6 c0 99 66 a4 c0
       -5.7806067 3.3348088 -6.2109942 -5.137524
0000b0 d2 b8 55 c0 be ed d2 3e 72 5f d8 bf ad 39 8c c0
       -3.3394055 0.41197008 -1.6904128 -4.3820405
0000c0 3e 74 54 c0 b8 1e 8f c0 58 71 9e bd 75 98 c8 c0
       -3.3195949 -4.4725 -0.07736462 -6.2686105
0000d0 0a f5 03 41 23 9f b2 bf e8 79 99 c0 64 5a fa 3b
       8.247324 -1.3954815 -4.796131 0.00764017
0000e0 96 d4 56 c0 9a 45 10 c0 d6 85 b3 c0 14 bf 29 40
       -3.3567252 -2.2542481 -5.6100874 2.6522875
0000f0 65 c5 90 c0 b3 d0 28 bf 64 13 f6 3e 1d db 99 3f
       -4.524096 -0.6594345 0.4806167 1.2019993

fc2.weight f4 [1, 64]
000000 4e de ca 3e 1a 8a 9d 3d b9 fa 87 3f 44 ba a5 bd
       0.3962273 0.076923564 1.062339 -0.08092168
000010 b8 71 ad 3d fe 05 02 3f 21 d7 85 bf 18 dc d0 3d
       0.08468956 0.50790393 -1.0456277 0.101982296
000020 4b f8 02 bd a1 ab 44 bf 5c 7a ff 3e 26 d9 15 3e
       -0.031975072 -0.76824385 0.4989804 0.14633617
000030 f7 ef a8 be fc 0e d0 bd 49 e1 2d 3f 3f 45 13 be
       -0.3299558 -0.10159108 0.6792188 -0.14381884
000040 f6 08 3a be 79 9d 1a bd 53 df 91 3d 26 b1 09 bf
       -0.18167481 -0.037747834 0.07122674 -0.5378593
000050 f6 c8 d9 3e c4 f9 05 bf ea ba cb 3e aa d7 7e 3e
       0.42536134 -0.5233424 0.39791042 0.24886957
000060 ea 54 94 3d 48 e1 9e 3e 2b b4 df be 8d 36 90 3e
       0.072427586 0.3103125 -0.43692145 0.2816662
000070 84 9b 82 3f 95 78 a0 bd f3 8b c6 3e 5b 29 cf 3e
       1.020371 -0.07835499 0.38778648 0.4046124
000080 9d 72 8a bf 06 57 1d 3f ad 92 0a 3f 81 bc 41 bd
       -1.0816227 0.6146091 0.5413006 -0.047298912
000090 84 64 71 bf 2a e1 63 be e7 3a cf bd e1 82 47 3f
       -0.94294 -0.22253862 -0.101186566 0.7793408
0000a0 61 6d 36 3f da 2b 1f bf e4 c1 f3 3e e9 63 54 3f
       0.7126065 -0.6217629 0.47608864 0.8296495
0000b0 b7 da 12 bf 3e 4e 15 3f e7 67 f1 3e 92 81 0c be
       -0.5736498 0.58322513 0.47149584 -0.13721302
0000c0 6f 27 01 bf 0d 33 2f 3f ec f0 ac 3b 22 12 4d bf
       -0.50450796 0.6843727 0.0052777436 -0.80105793
0000d0 f6 19 2c bf e0 ef 38 3e 5f 98 41 3f 1f 6c 05 3f
       -0.67227113 0.18060255 0.75623125 0.52118105
0000e0 3f e8 ca 3d 2d 3e b5 3d 09 7c 53 bf 6c c9 15 bc
       0.09907579 0.0884975 -0.8261114 -0.009142261
0000f0 8a 02 28 bf 69 1d 6f bf 1d 4f 41 be 8c 51 b9 3d
       -0.65628874 -0.9340425 -0.18877836 0.09048757
